…
Data path: /storage/hpc_tanel/sdc/X_final_train_hsv_gray_diff2_ch4.npy
X_train shape:(93043, 192, 256, 4)
X_test shape:(1970, 192, 256, 4)
y_train shape:(93043,)
y_test shape:(1970,)
Computing training set mean...
Creating model...
Model is created and compiled..
____________________________________________________________________________________________________
Layer (type)                     Output Shape          Param #     Connected to                     
====================================================================================================
convolution2d_1 (Convolution2D)  (None, 48, 64, 16)    4112        convolution2d_input_1[0][0]      
____________________________________________________________________________________________________
prelu_1 (PReLU)                  (None, 48, 64, 16)    49152       convolution2d_1[0][0]            
____________________________________________________________________________________________________
convolution2d_2 (Convolution2D)  (None, 24, 32, 32)    12832       prelu_1[0][0]                    
____________________________________________________________________________________________________
prelu_2 (PReLU)                  (None, 24, 32, 32)    24576       convolution2d_2[0][0]            
____________________________________________________________________________________________________
convolution2d_3 (Convolution2D)  (None, 12, 16, 64)    51264       prelu_2[0][0]                    
____________________________________________________________________________________________________
flatten_1 (Flatten)              (None, 12288)         0           convolution2d_3[0][0]            
____________________________________________________________________________________________________
prelu_3 (PReLU)                  (None, 12288)         12288       flatten_1[0][0]                  
____________________________________________________________________________________________________
dense_1 (Dense)                  (None, 512)           6291968     prelu_3[0][0]                    
____________________________________________________________________________________________________
prelu_4 (PReLU)                  (None, 512)           512         dense_1[0][0]                    
____________________________________________________________________________________________________
dense_2 (Dense)                  (None, 1)             513         prelu_4[0][0]                    
====================================================================================================
Total params: 6447217
____________________________________________________________________________________________________
None
Epoch 1/10
   32/93024 [..............................] - ETA: 605s - loss: 0.0126
…
